weight.pt (torch, 520787 bytes, 75 tensors)

image_encoder.stem.weight f4 [64, 784]
0	0xbbaba7d4	-0.0052385125
1	0x3c4dcac2	0.012560548
2	0xbca63949	-0.020290988
3	0x3c8926c4	0.016742118
4	0xbbe3b4f1	-0.00694906
5	0xbc17fa11	-0.009275929
6	0x3c9b37e2	0.018947545
7	0xbc74e6a5	-0.014947568
8	0xbc1b5609	-0.009480962
9	0x3981d1e0	0.00024761166
10	0x3c1f2b2a	0.009714881
11	0x3b9e2fc5	0.004827472
12	0xbdc0d709	-0.09416015
13	0xbdd5a1c5	-0.10431246
14	0xbd3cdede	-0.04611098
15	0xbd850d31	-0.06496657
16	0xbc82b454	-0.015955128
17	0xbc8249cd	-0.015904332
18	0x3ca2bef2	0.01986644
19	0x3c6cfeca	0.014465043
20	0x3c6e61fc	0.0145497285
21	0x3c86babd	0.016446466
22	0xbba9dba7	-0.0051836553
23	0x3c3c4700	0.011491537
24	0xbc9f3334	-0.019433595
25	0x3bb9c406	0.00566912
26	0x3be5bc64	0.0070109833
27	0xbb54dccb	-0.0032480236
28	0x3c8a1ee0	0.016860425
29	0x3c81c50f	0.015841035
30	0x3baa7903	0.005202414
31	0x3c820f94	0.015876569
32	0x3b09f02c	0.0021047695
33	0xbbd49aa0	-0.0064881593
34	0xbe0818f6	-0.13290772
35	0xbe28e2f9	-0.16492833
36	0xbda124ee	-0.07868372
37	0xbc8f885d	-0.017521078
38	0xbe62ed8e	-0.22160932
39	0xbd471421	-0.04860318
40	0xbe77d7b1	-0.24203373
41	0xbedb4dcb	-0.4283279
42	0xbdc83061	-0.097748525
43	0xbe574753	-0.21023302
44	0xbe85a435	-0.26101843
45	0xbe1f5898	-0.1556114
46	0xbe235237	-0.15949331
47	0xbe3b0a6d	-0.18265696
48	0xbe71c920	-0.2361188
49	0xbe633f7d	-0.22192188
50	0xbe3d68e4	-0.18497044
51	0xbdae4c51	-0.0851065
52	0x3c14da58	0.00908526
53	0x3c8c590d	0.017132306
54	0x3c1b268b	0.009469639
55	0x3c9db857	0.01925294
56	0x3c5323ba	0.012886936
57	0x3c679978	0.014135711
58	0xbe99a7a1	-0.30010703
59	0xbe5db84d	-0.21652336
60	0xbdb30250	-0.087406754
61	0xbe18b796	-0.14913782
62	0xbd120aa0	-0.035654664
63	0xbda755fa	-0.081706956
64	0xbd4f1011	-0.05055243
65	0x3e506fd0	0.20355153
66	0x3e0f8254	0.1401456
67	0xbd20d200	-0.03926277
68	0xbd9ff0f9	-0.07809634
69	0xbdde97e4	-0.108688146
70	0x3c499a24	0.012304816
71	0x3e71786a	0.2358109
72	0x3d97a1f9	0.07403941
73	0x3ddf6802	0.1090851
74	0x3c3ee9cd	0.011652422
75	0xbc739f8a	-0.01486958
76	0x3dbc8169	0.092043705
77	0x3dc37052	0.09542908
78	0xbda808b1	-0.08204783
79	0xbd296bb7	-0.04136249
80	0x3e3bd3d4	0.18342525
81	0xbe4271ec	-0.1898877
82	0x3c9445d5	0.018099705
83	0x3c7ad41c	0.01530936
84	0x3c69b557	0.014264426
85	0x3c552270	0.013008699
86	0xbe430475	-0.19044669
87	0xbe92cc17	-0.28671333
88	0xbdea7f77	-0.11450093
89	0xbe47142e	-0.19441292
90	0x3cd39954	0.025829948
91	0xbde06e74	-0.10958567
92	0xbe44371a	-0.19161645
93	0xbcc17030	-0.023613065
94	0xbdf5bbd6	-0.119987175
95	0xbe05fc93	-0.1308463
96	0xbe625953	-0.22104387
97	0xbe961444	-0.29312336
98	0xbe23e2ea	-0.1600453
99	0xbdd83d7d	-0.10558603
100	0x3e588bc9	0.21147074
101	0x3e38a6f5	0.18032439
102	0x3e3b308f	0.18280242
103	0x3e35d92d	0.17758627
104	0xbe3b63ab	-0.18299739
105	0x3d1797e1	0.037010077
106	0x3e9c4887	0.30524084
107	0x3cb46bf8	0.02202414
108	0xbe9c5083	-0.30530176
109	0xbea34ee0	-0.31896114
110	0xbe9a59a9	-0.3014653
111	0x3ab4b537	0.0013786916
112	0x3c687600	0.01418829
113	0xbdee3b14	-0.11632362
114	0xbdea82f7	-0.11450761
115	0xbe4c4ee6	-0.19951972
116	0x3e395a98	0.18100965
117	0x3e63a8a8	0.22232306
118	0x3e6fdf6d	0.23425074
119	0x3de2809b	0.11059686
120	0x3e35c9bb	0.17752735
121	0x3d9ab415	0.07553879
122	0x3da4a117	0.08038538
123	0x3d80666a	0.06269534
124	0x3d12bd4c	0.03582506
125	0x3b95395d	0.0045539574
126	0x3d561d7c	0.052274212
127	0xbe6f5f23	-0.23376136
128	0xbc11c7cc	-0.008897733
129	0xbd1a570c	-0.03768067
130	0xbdcfad57	-0.10140484
131	0xbde59493	-0.11209979
132	0x3d528f82	0.05140639
133	0xbdf3a8e0	-0.11897445
134	0xbe009321	-0.12556125
135	0x3d1eccb0	0.038769424
136	0xbde0627d	-0.10956285
137	0xbdde32e0	-0.108495474
138	0xbedae442	-0.42752272
139	0xbe077025	-0.13226373
140	0x3c5d8bd6	0.013522109
141	0x3bf28a74	0.007401759
142	0x3ea2e803	0.31817636
143	0x3e337351	0.17524458
144	0x3ec3198b	0.38105425
145	0x3e872c7f	0.26401135
146	0x3e859e06	0.26097125
147	0x3d7bd4b1	0.061482135
148	0xbe2ea280	-0.17054176
149	0xbdd48f06	-0.10378842
150	0x3e044932	0.12918547
151	0x3c96d4ee	0.01841208
152	0x3ddd8c89	0.108178206
153	0xbdef35de	-0.11680196
154	0x3cdf8ac7	0.027287854
155	0xbc92097c	-0.017826788
156	0xbccb1ca4	-0.02479393
157	0x3cc928b1	0.024555536
158	0xbd231051	-0.039810482
159	0x3b49abe3	0.0030772618
160	0x3d8468e3	0.06465318
161	0x3e4ef467	0.2021042
162	0x3d70edc2	0.058820494
163	0xbbcf502f	-0.0063266973
164	0xbe4ef57e	-0.20210835
165	0xbe0380a0	-0.12842035
166	0xbdce6bb6	-0.10079138
167	0xbcef4d62	-0.029211704
168	0x3c2a1a4c	0.010382246
169	0x3dc7cc69	0.09755785
170	0xbba3b080	-0.0049954057
171	0x3d1a1952	0.037621804
172	0x3d9a6194	0.07538143
173	0xbe6b4afb	-0.22977822
174	0xbd904ac7	-0.07045513
175	0x3d6427a7	0.055701878
176	0xbd716a07	-0.058939006
177	0xbe1cbd8a	-0.15306678
178	0xbd3ed0c7	-0.046585824
179	0xbd2af98a	-0.041741885
180	0x3d99f838	0.07518047
181	0xbda65849	-0.08122308
182	0xbdb8aca6	-0.09017305
183	0x3b7eac45	0.0038860005
184	0xbd5a4398	-0.05328712
185	0xbd4100e5	-0.047119994
186	0xbd108252	-0.035280533
187	0x3d9c041f	0.076179735
188	0x3cd55043	0.026039248
189	0xbe051019	-0.12994422
190	0x3c650cba	0.013980085
191	0x3da1ba2a	0.07896836
192	0xbe8f160a	-0.27946502
193	0xbdeb4516	-0.114877865
194	0x3ddb59a6	0.107104585
195	0x3dec045a	0.115242675
196	0x3db0cca7	0.08632784
197	0x3e1587b4	0.14602548
198	0x3cc72b13	0.024312532
199	0xbeb56b44	-0.354334
200	0x3d1cd1ec	0.038286135
201	0xbe6d1a66	-0.23154601
202	0xbd0b89fc	-0.03406714
203	0x3856a493	5.1174848e-05
204	0x3de086f1	0.10963238
205	0xbcec87da	-0.028873373
206	0xbcfd4763	-0.030917829
207	0xbb0281e9	-0.0019913858
208	0xbd960370	-0.073248744
209	0xbd8b7356	-0.06809108
210	0xbe242f8c	-0.16033763
211	0xbd523974	-0.051324323
212	0xbe18c465	-0.14918669
213	0xbe0463b5	-0.1292866
214	0xbd48e235	-0.049043853
215	0xbc96c2dd	-0.018403465
216	0x3d664d9b	0.056226354
217	0x3d0d3f26	0.03448405
218	0x3de402fe	0.11133383
219	0xbea6365d	-0.3246335
220	0xbe98ac9d	-0.29819193
221	0x3df24a5d	0.1183059
222	0x3e1580f4	0.14599973
223	0x3c1fb6aa	0.00974814
224	0x3cd27ad9	0.025693344
225	0x3df3254d	0.11872349
226	0xbd965773	-0.07340898
227	0x3e04c53e	0.12965867
228	0xbe393e8f	-0.1809027
229	0xbecf8f98	-0.4053924
230	0xbca87292	-0.020562444
231	0x3d714ed6	0.058913074
232	0xbe1090e2	-0.14117768
233	0x3b0f0c42	0.0021827375
234	0x3bbe436d	0.0058063776
235	0x3da776c4	0.081769496
236	0x3d068e2d	0.032850433
237	0x3dc275f9	0.09495158
238	0xbd4c001a	-0.049804784
239	0xbcfb03cb	-0.030641457
240	0xbda09988	-0.07841784
241	0x3c13ea0e	0.009027971
242	0xbd432536	-0.04764291
243	0x3de571a1	0.112033136
244	0x3cd4dda2	0.025984589
245	0xbe05d4be	-0.13069436
246	0xbd4bdcc5	-0.04977109
247	0x3d819e26	0.063289925
248	0xbda9accf	-0.08284914
249	0x3d8dc561	0.06922413
250	0xbe85439d	-0.26028147
251	0xbe89152c	-0.26773965
252	0xbe55af82	-0.20867732
253	0xbd0c5de7	-0.03426924
254	0x3d8a9f33	0.06768646
255	0x3f152b1f	0.5826892

image_encoder.stem.bias f4 [64]
0	0xbc9e9463	-0.019357866
1	0xbf0d2c19	-0.5514541
2	0xbda50584	-0.08057693
3	0xbe514ba5	-0.20439012
4	0x39a7aca1	0.0003198134
5	0xbe5b842c	-0.21437138
6	0xbec86a02	-0.39143378
7	0x3d86b7d7	0.065780334
8	0xbe41f620	-0.18941545
9	0xbe981552	-0.29703766
10	0x3db873c6	0.09006457
11	0xbda790f3	-0.08181944
12	0xbcd0d424	-0.025491782
13	0x3ce6b24a	0.028161187
14	0xbe5ce4df	-0.21571682
15	0xbcd3ff7c	-0.02587866
16	0xbcc8de8a	-0.024520177
17	0x3e6afc6d	0.22947855
18	0x3d425c31	0.0474512
19	0x3e73cd6a	0.23808828
20	0xbdc8b8d6	-0.0980088
21	0x3d421c5d	0.04739033
22	0xbeaa526f	-0.33266017
23	0xbdc2ed86	-0.0951796
24	0xbe0621cc	-0.1309883
25	0x3dd2a046	0.10284476
26	0xbdb3925e	-0.08768152
27	0xbe050c47	-0.12992965
28	0x3e7e9f6b	0.248655
29	0xbc612620	-0.013742
30	0x3de87ad9	0.11351556
31	0xbdbe62bd	-0.092961766
32	0xbde9894f	-0.11403143
33	0xbdfbdf19	-0.12298412
34	0xbeacc75b	-0.33745846
35	0xbe0a1af1	-0.1348684
36	0x3e5e24d8	0.21693742
37	0xbe63aab2	-0.22233084
38	0x3d48ca52	0.049021073
39	0x3cc9e812	0.024646793
40	0xbd44ba14	-0.04802902
41	0xbe8b3af2	-0.2719341
42	0xbeae6b71	-0.34066346
43	0xbf29da4d	-0.66348726
44	0xbe38047f	-0.17970465
45	0x3e8412bd	0.25795546
46	0xbe79a65e	-0.2437987
47	0xbec638b5	-0.3871514
48	0xbdba9c74	-0.09111872
49	0x3b48ee1d	0.0030659505
50	0x3daf6f32	0.08566131
51	0x3df130d1	0.11776889
52	0x3e1c9c97	0.1529411
53	0xbd3ce8d2	-0.046120472
54	0xbcede1d1	-0.029038342
55	0xbcf5d9a4	-0.030011006
56	0xbe24f7d3	-0.16110162
57	0x3d64ceab	0.055861156
58	0x3e0f5786	0.13998231
59	0x3d4bf882	0.049797542
60	0x3ddc3577	0.10752385
61	0xbee5f767	-0.44915316
62	0x3d9ca6ea	0.07649024
63	0x3e56e692	0.20986393

image_encoder.blocks.0.0.weight f4 [64]
0	0x3f65174e	0.89488685
1	0x3f4f8348	0.81059694
2	0x3f58e86f	0.84729666
3	0x3f66e1ec	0.9018848
4	0x3f61db32	0.8822509
5	0x3f3faeac	0.74875903
6	0x3f44f25f	0.7693233
7	0x3f8a3e14	1.0800195
8	0x3f4ccc42	0.7999917
9	0x3f15c7da	0.58508074
10	0x3f86a8f0	1.0520306
11	0x3f6c3b62	0.9227811
12	0x3f283f88	0.6572194
13	0x3f5e8200	0.86917114
14	0x3f22384b	0.63367146
15	0x3f6b7927	0.9198174
16	0x3f70a07c	0.9399488
17	0x3f6893ad	0.90850335
18	0x3f451eeb	0.770003
19	0x3f56a376	0.8384317
20	0x3f6f2140	0.9341011
21	0x3f7a2740	0.9771614
22	0x3f6ee216	0.9331373
23	0x3f5063d1	0.8140231
24	0x3f7621a0	0.9614506
25	0x3f8352e2	1.0259669
26	0x3f5c95e5	0.8616622
27	0x3f65f942	0.8983346
28	0x3f7a42ed	0.9775837
29	0x3f852c41	1.040413
30	0x3f3b4255	0.7314809
31	0x3f4e2ee7	0.8054032
32	0x3f4a9961	0.7914029
33	0x3f6a8abf	0.9161796
34	0x3f156270	0.5835333
35	0x3f5d541d	0.8645647
36	0x3f54f492	0.83185685
37	0x3f645f58	0.89207983
38	0x3f659cab	0.8969218
39	0x3f8c45b2	1.0958769
40	0x3f5763e2	0.84136784
41	0x3f23e11e	0.64015377
42	0x3f82b309	1.0210887
43	0x3f34c640	0.70615005
44	0x3f7133c3	0.9421961
45	0x3f616bfb	0.8805539
46	0x3f2f9f5d	0.68602544
47	0x3f158d8d	0.58419114
48	0x3f90ab15	1.130221
49	0x3f6f4d4b	0.93477315
50	0x3f7c8ed3	0.9865543
51	0x3f50428c	0.8135154
52	0x3f6b1592	0.9182979
53	0x3f29afc8	0.66283846
54	0x3f7f3e43	0.9970438
55	0x3f86b798	1.0524778
56	0x3f81d18a	1.0142071
57	0x3f667369	0.9001985
58	0x3f8b6fed	1.0893532
59	0x3f4bb848	0.79578066
60	0x3f4f992d	0.810931
61	0x3f4128ed	0.7545307
62	0x3f5167b6	0.81798875
63	0x3f801382	1.0005953

image_encoder.blocks.0.0.bias f4 [64]
0	0xbea34601	-0.31889346
1	0x3eaaa798	0.3333099
2	0x3e848bf5	0.2588803
3	0xbde7939f	-0.11307453
4	0x3d9e4750	0.077284455
5	0xbed70317	-0.41994545
6	0x3f3945ea	0.72372305
7	0xbe6001d5	-0.21875699
8	0x3f0d71fd	0.5525206
9	0xbf420b92	-0.75798905
10	0xbe8eb242	-0.27870375
11	0xbdff480f	-0.12464916
12	0xbe56d738	-0.20980537
13	0xbe2bdc35	-0.16783221
14	0xbeccc5cc	-0.39994657
15	0xbc721f9d	-0.014778045
16	0xbe5c99af	-0.21543
17	0x3e2c97ad	0.16854735
18	0xbe1c8867	-0.15286408
19	0xbc94d140	-0.018166184
20	0xbd52cf2b	-0.051467102
21	0xbeed101f	-0.46301362
22	0x3f25e977	0.64809364
23	0xbe3390af	-0.17535661
24	0xbe31a5d6	-0.17348418
25	0xbca34f18	-0.019935176
26	0x3e30d709	0.1726953
27	0x3e0bd629	0.13655914
28	0x3e9ffe74	0.3124882
29	0xbd881a11	-0.06645597
30	0x3eb62265	0.35573116
31	0x3e321ab3	0.17392997
32	0x3eac75c7	0.33683607
33	0xbe91289a	-0.2835129
34	0xbf29d1c4	-0.663357
35	0x3dc21eba	0.09478517
36	0xbe00eecf	-0.12591098
37	0x3e279f22	0.16369298
38	0xbe883e4f	-0.26610038
39	0xbd65caa7	-0.056101467
40	0xbdb01049	-0.08596856
41	0xbe05b215	-0.13056214
42	0xbf0ef293	-0.5583889
43	0x3e8c02e6	0.2734596
44	0xbd827313	-0.06369605
45	0x3e530aa1	0.20609523
46	0x3ee71591	0.4513364
47	0x3f004315	0.5010236
48	0xbde0a915	-0.1096975
49	0xbeccc665	-0.39995113
50	0xbdd3ac9e	-0.103356585
51	0xbe338199	-0.17529906
52	0x3e5ccbf2	0.21562174
53	0xbef19000	-0.47180176
54	0x3d510a5e	0.051035278
55	0xbe6d9099	-0.23199691
56	0xbee07bdb	-0.43844494
57	0xbc8ce271	-0.01719782
58	0x3e948b25	0.2901241
59	0xbe88fa76	-0.26753587
60	0x3e619314	0.22028762
61	0x3f024e84	0.50901055
62	0x3df5ce13	0.12002196
63	0x3e37e4e1	0.17958404

image_encoder.blocks.0.1.weight f4 [64, 64]
0	0xbf71b6dc	-0.94419646
1	0x3e29dd0a	0.16588226
2	0x3e18d01e	0.1492314
3	0x3c31d63d	0.010854301
4	0xbdab31ab	-0.08359083
5	0xbd96d4cd	-0.07364807
6	0x3e2141ea	0.157478
7	0xbe7d693c	-0.24747175
8	0x3e3a47f6	0.18191513
9	0x3dc4eb6d	0.096152164
10	0x3e19349d	0.14961477
11	0x3d3f8f5e	0.046767585
12	0xbd6a901f	-0.05726635
13	0xbdd72d7b	-0.105067216
14	0x3d0d4d2d	0.03449743
15	0x3e0807fd	0.13284297
16	0x3d609071	0.05482525
17	0xbe41f474	-0.18940908
18	0xbdb85c02	-0.09001924
19	0xbe138a81	-0.14408304
20	0x3d8b8ab1	0.06813563
21	0x3dfaafba	0.122405484
22	0x3dea4ca6	0.11440401
23	0x3c0fda0a	0.008780012
24	0xbe09d34f	-0.13459514
25	0xbdf6411b	-0.12024137
26	0x3e656be3	0.22404437
27	0xbdddb473	-0.108254336
28	0xbd9b6f8a	-0.07589634
29	0x3d99879a	0.07496567
30	0x3c51f7b1	0.012815402
31	0xbea160b4	-0.3151909
32	0xbecc621f	-0.3991861
33	0x3d8a6f0b	0.06759461
34	0x3da32cc8	0.07967526
35	0xbc8346c9	-0.016024964
36	0xbc0909f6	-0.008364191
37	0x3d5a48a8	0.053291947
38	0x3d6d2427	0.057895806
39	0xbcb6fbf6	-0.022336941
40	0xbd4034d6	-0.04692539
41	0x3d9cea67	0.07661896
42	0xbc06d3d7	-0.0082292175
43	0x3dccc836	0.09999125
44	0xbe5776d5	-0.21041425
45	0xbd84dc8c	-0.064873785
46	0x3d2e9470	0.04262203
47	0x3e050e95	0.12993844
48	0xbc16af70	-0.009197101
49	0x3ce35f79	0.027755486
50	0xbcc762a2	-0.024339024
51	0xbd1d4dec	-0.03840439
52	0xbca2cfe1	-0.019874515
53	0x3d99a3af	0.07501923
54	0x3d2f7199	0.042832945
55	0x3e93dd5a	0.28879815
56	0x3e03be8b	0.12865655
57	0xbe058122	-0.13037542
58	0x3e038a13	0.1284564
59	0x3e479ea1	0.19494106
60	0xbcdd09cf	-0.026982216
61	0x3e46ec64	0.19426113
62	0xbe2ad3c2	-0.16682342
63	0xbd27d531	-0.0409748
64	0x3db4b1d5	0.08822981
65	0x3e874cef	0.26425883
66	0xbea9f7f0	-0.33196974
67	0xbf0c1dc8	-0.5473294
68	0x3e1a14ce	0.15046999
69	0x3d8698eb	0.065721355
70	0xbebb78d2	-0.36615616
71	0x3e6b079a	0.22952119
72	0xbea172bd	-0.3153285
73	0x3e688262	0.22705987
74	0x3ebcfedc	0.36913192
75	0x3db643ab	0.088996254
76	0x3cf321f1	0.02967927
77	0x3e6835ee	0.22676823
78	0x3e2cf818	0.16891515
79	0xbeccf73b	-0.40032372
80	0x3eb05758	0.34441638
81	0x3dcf7b84	0.101309806
82	0x3f15f7be	0.5858115
83	0xbe71c503	-0.2361031
84	0x3dd23e57	0.10265797
85	0x3e7dfc30	0.24803233
86	0xbe381264	-0.17975765
87	0xbe714389	-0.23560919
88	0x3d12cfa7	0.035842564
89	0xbe6385f7	-0.22219072
90	0xbd5bf434	-0.053699687
91	0xbe664012	-0.22485378
92	0x3e53a86c	0.20669717
93	0xbe4d068f	-0.20022033
94	0xbe37abb1	-0.17936589
95	0xbd450257	-0.048097935
96	0xbdb4ac7e	-0.08821963
97	0x3e8ce78c	0.27520406
98	0x3e6f191f	0.23349427
99	0xbdf4c0cc	-0.119508356
100	0x3e8054ed	0.25064793
101	0xbd555755	-0.05208524
102	0x3e0e86b6	0.13918576
103	0x3ecf6d19	0.40512922
104	0x3c76afca	0.01505656
105	0xbe658abb	-0.22416203
106	0x3f0b389e	0.54383266
107	0xbe00d89a	-0.12582627
108	0x3e79236b	0.24329917
109	0x3d90061e	0.07032417
110	0xbe2a4c5d	-0.16630693
111	0xbe7dac95	-0.24772866
112	0x3e3cc241	0.18433477
113	0x3dc7388b	0.097275816
114	0x3de44e27	0.11147719
115	0xbe0420d1	-0.12903143
116	0xbe81c143	-0.2534276
117	0x3ee79115	0.45227876
118	0x3dff16bc	0.12455508
119	0x3e4af171	0.19818665
120	0x3ba2825a	0.004959387
121	0xbe6f9e2e	-0.23400185
122	0xbe41aa7a	-0.18912688
123	0xbe83429d	-0.2563676
124	0xbebe9b70	-0.37227964
125	0xbe866e69	-0.2625611
126	0xbed69ec6	-0.4191801
127	0xbeaaa7b5	-0.33331075
128	0x3d34bba2	0.044124253
129	0x3c61ee70	0.013789758
130	0xbeec1c89	-0.4611552
131	0x3d686de6	0.056745432
132	0xbc847af0	-0.016171902
133	0xbc3294c9	-0.010899731
134	0xbe8a4cd8	-0.27011752
135	0xbd9d3344	-0.07675794
136	0xbdac3863	-0.084091924
137	0x3db79c79	0.08965392
138	0x3de246db	0.11048671
139	0x3d9459e7	0.0724371
140	0x3e0c5515	0.13704331
141	0x3e989f57	0.29809067
142	0x3d29db30	0.0414688
143	0x3e7c44b1	0.24635579
144	0xbe084c2b	-0.13310306
145	0xbac6308f	-0.0015120673
146	0x3d19381e	0.037407033
147	0x3ee6e49c	0.4509629
148	0x3e3ef240	0.18647099
149	0xbe3ec84d	-0.18631096
150	0xbea4ab07	-0.32161734
151	0x3e2a2e66	0.16619262
152	0x3e6fd33c	0.23420423
153	0x3f08572e	0.53258026
154	0xbd3dfc41	-0.046383146
155	0x3e9a0780	0.30083847
156	0x3c97db0e	0.01853707
157	0x3e493fab	0.19653194
158	0xbe649dc3	-0.22325806
159	0xbddcca24	-0.10780743
160	0xbefe7176	-0.4969594
161	0x3da9722c	0.0827373
162	0x3e964c3a	0.2935503
163	0xbcc14129	-0.023590641
164	0xbd588188	-0.052857906
165	0x3ece4dbf	0.4029369
166	0xbe24cd3c	-0.16093916
167	0xbdcdf094	-0.10055652
168	0xbeaafc83	-0.33395776
169	0xbd006ba5	-0.031352658
170	0xbd6f434b	-0.058413785
171	0xbd0be298	-0.034151644
172	0xbe222e3c	-0.1583795
173	0x3dcf087b	0.101090394
174	0xbe461267	-0.19342957
175	0xbe9b8606	-0.3037569
176	0xbe5d9d6d	-0.21642084
177	0x3c291e54	0.010322172
178	0xbdb51ece	-0.08843766
179	0xbe289c36	-0.1646584
180	0xbe8721cc	-0.26392972
181	0x3e6c56e4	0.23080021
182	0xbc85e25d	-0.01634329
183	0x3e3ebfc6	0.18627843
184	0xbdc003c5	-0.09375719
185	0xbed62afd	-0.41829672
186	0x3be5cbcf	0.0070128213
187	0xbd3768af	-0.04477757
188	0x3d15d84d	0.036583234
189	0xbdb8de92	-0.09026827
190	0xbe0d6d0d	-0.13811131
191	0x3dd91167	0.10599022
192	0x3d07905a	0.03309665
193	0x3e6b8c04	0.2300263
194	0xbc99bda6	-0.01876719
195	0xbf7a8215	-0.9785474
196	0x3d8b3f0c	0.067991346
197	0x3e130d3a	0.14360514
198	0xbcdcfb85	-0.026975403
199	0x3d7a831b	0.06116019
200	0x3cc7ab8f	0.024373798
201	0xbc75f03a	-0.015010888
202	0x3e02ddcb	0.1277992
203	0xbd66e8b7	-0.056374278
204	0x3e564434	0.20924455
205	0xbe69ef1c	-0.22845119
206	0x3e28a2c5	0.16468342
207	0xbd2d4100	-0.042298317
208	0x3dec67bc	0.11543223
209	0x3cf8c5ea	0.03036781
210	0xbe9c1856	-0.30487317
211	0x3e8e37a7	0.27776834
212	0xbd894fee	-0.067046985
213	0x3d40178b	0.046897452
214	0x3e1d9b12	0.15391186
215	0x3e4d6370	0.20057464
216	0xbea30824	-0.31842148
217	0xbdcab586	-0.09897904
218	0x3dccbeae	0.09997307
219	0xbcfcb14e	-0.030846264
220	0xbde16954	-0.11006418
221	0x3e45f757	0.19332634
222	0x3d15622f	0.03647059
223	0x3c5f03c3	0.013611737
224	0x3c65d8e0	0.014028758
225	0xbcb4fe4d	-0.022093916
226	0x3d7c2049	0.061554227
227	0x3cea5b52	0.028607998
228	0x3e224e9e	0.15850303
229	0xbdbe6986	-0.09297471
230	0xbddbe2d2	-0.10736622
231	0xbc04096f	-0.00805889
232	0x3c8b8176	0.017029505
233	0x3b3138fe	0.0027042027
234	0xbcab40f3	-0.020904994
235	0x3e4438c6	0.19162282
236	0x3d272cb0	0.0408141
237	0xbd95aeaa	-0.07308705
238	0xbdfd2f71	-0.12362564
239	0x3e0ff977	0.14060007
240	0x3d967475	0.07346431
241	0x3dcf7a9b	0.10130807
242	0xbdde4bbe	-0.108542904
243	0xbdeb5d4a	-0.11492403
244	0xbe2e1e0c	-0.1700365
245	0x3e4575a7	0.19283162
246	0x3e88d43c	0.26724422
247	0x3cf99632	0.030467127
248	0x3d1be906	0.038064025
249	0x3c2bec28	0.010493316
250	0xbeb3a0b4	-0.35083544
251	0x3e16200d	0.14660664
252	0x3bbc2904	0.005742194
253	0x3df0876e	0.11744581
254	0xbe00d787	-0.12582217
255	0x3e61cd0d	0.22050877

image_encoder.blocks.0.1.bias f4 [64]
0	0xbe3148a0	-0.1731286
1	0xbee980de	-0.4560613
2	0xbe6664e2	-0.22499421
3	0x3d408e8e	0.04701095
4	0x3e1bd012	0.15216091
5	0xbe2de31d	-0.16981168
6	0xbed105c3	-0.40824708
7	0x3d8bafe3	0.06820657
8	0xbeb1093e	-0.34577364
9	0xbf0f4353	-0.55962104
10	0xbe7eb018	-0.24871862
11	0xbd470472	-0.048588224
12	0xbede9bcf	-0.43478248
13	0xbe318ff4	-0.1734007
14	0xbf417816	-0.7557386
15	0xbdf3334d	-0.11875019
16	0xbe6508d2	-0.22366646
17	0xbd1053fd	-0.035236347
18	0xbe5e44bf	-0.21705912
19	0xbdc4db60	-0.09612155
20	0xbd72feae	-0.059324913
21	0xbe973ce1	-0.29538634
22	0xbebde6ef	-0.3709025
23	0xbd08ac35	-0.033367354
24	0xbd11d07e	-0.035599224
25	0xbc618665	-0.013764952
26	0xbec3838e	-0.38186306
27	0x3dabf88c	0.08397016
28	0x3de1817d	0.11011026
29	0xbbbb11c8	-0.005708907
30	0xbca92cb1	-0.020651193
31	0xbe7b7858	-0.24557626
32	0xbe8c6a4e	-0.27424854
33	0xbe529173	-0.20563297
34	0xbeecec44	-0.46274006
35	0xbdc5f69f	-0.0966618
36	0xbe9a2657	-0.30107376
37	0x3e0a5f5c	0.13512939
38	0xbdf8eea4	-0.12154892
39	0xbdf53f15	-0.119749226
40	0xbe60c8d2	-0.21951607
41	0xbe761cac	-0.24034375
42	0xbe852e09	-0.26011685
43	0xbecc484d	-0.3989891
44	0x3d839ef6	0.06426804
45	0x3d22f029	0.039779816
46	0xbe9f71b9	-0.3114145
47	0xbecc41b8	-0.3989389
48	0xbd0c1a67	-0.034204867
49	0xbe27f345	-0.16401394
50	0xbe1c1d82	-0.15245631
51	0xbd94b23c	-0.07260558
52	0x3e02f7a6	0.12789783
53	0xbedadf44	-0.42748463
54	0xbcdfd833	-0.027324772
55	0x3d536eba	0.05161927
56	0xbea6c607	-0.32572958
57	0xbd1df45d	-0.03856312
58	0x3c37cdbd	0.011218485
59	0xbe5dc4e1	-0.21657135
60	0xbdb6b111	-0.089204915
61	0xbee6b12d	-0.4505705
62	0xbe0f52f3	-0.13996486
63	0x3dec1bd1	0.11528743

image_encoder.blocks.1.0.weight f4 [64]
0	0x3f65174e	0.89488685
1	0x3f4f8348	0.81059694
2	0x3f58e86f	0.84729666
3	0x3f66e1ec	0.9018848
4	0x3f61db32	0.8822509
5	0x3f3faeac	0.74875903
6	0x3f44f25f	0.7693233
7	0x3f8a3e14	1.0800195
8	0x3f4ccc42	0.7999917
9	0x3f15c7da	0.58508074
10	0x3f86a8f0	1.0520306
11	0x3f6c3b62	0.9227811
12	0x3f283f88	0.6572194
13	0x3f5e8200	0.86917114
14	0x3f22384b	0.63367146
15	0x3f6b7927	0.9198174
16	0x3f70a07c	0.9399488
17	0x3f6893ad	0.90850335
18	0x3f451eeb	0.770003
19	0x3f56a376	0.8384317
20	0x3f6f2140	0.9341011
21	0x3f7a2740	0.9771614
22	0x3f6ee216	0.9331373
23	0x3f5063d1	0.8140231
24	0x3f7621a0	0.9614506
25	0x3f8352e2	1.0259669
26	0x3f5c95e5	0.8616622
27	0x3f65f942	0.8983346
28	0x3f7a42ed	0.9775837
29	0x3f852c41	1.040413
30	0x3f3b4255	0.7314809
31	0x3f4e2ee7	0.8054032
32	0x3f4a9961	0.7914029
33	0x3f6a8abf	0.9161796
34	0x3f156270	0.5835333
35	0x3f5d541d	0.8645647
36	0x3f54f492	0.83185685
37	0x3f645f58	0.89207983
38	0x3f659cab	0.8969218
39	0x3f8c45b2	1.0958769
40	0x3f5763e2	0.84136784
41	0x3f23e11e	0.64015377
42	0x3f82b309	1.0210887
43	0x3f34c640	0.70615005
44	0x3f7133c3	0.9421961
45	0x3f616bfb	0.8805539
46	0x3f2f9f5d	0.68602544
47	0x3f158d8d	0.58419114
48	0x3f90ab15	1.130221
49	0x3f6f4d4b	0.93477315
50	0x3f7c8ed3	0.9865543
51	0x3f50428c	0.8135154
52	0x3f6b1592	0.9182979
53	0x3f29afc8	0.66283846
54	0x3f7f3e43	0.9970438
55	0x3f86b798	1.0524778
56	0x3f81d18a	1.0142071
57	0x3f667369	0.9001985
58	0x3f8b6fed	1.0893532
59	0x3f4bb848	0.79578066
60	0x3f4f992d	0.810931
61	0x3f4128ed	0.7545307
62	0x3f5167b6	0.81798875
63	0x3f801382	1.0005953

image_encoder.blocks.1.0.bias f4 [64]
0	0xbea34601	-0.31889346
1	0x3eaaa798	0.3333099
2	0x3e848bf5	0.2588803
3	0xbde7939f	-0.11307453
4	0x3d9e4750	0.077284455
5	0xbed70317	-0.41994545
6	0x3f3945ea	0.72372305
7	0xbe6001d5	-0.21875699
8	0x3f0d71fd	0.5525206
9	0xbf420b92	-0.75798905
10	0xbe8eb242	-0.27870375
11	0xbdff480f	-0.12464916
12	0xbe56d738	-0.20980537
13	0xbe2bdc35	-0.16783221
14	0xbeccc5cc	-0.39994657
15	0xbc721f9d	-0.014778045
16	0xbe5c99af	-0.21543
17	0x3e2c97ad	0.16854735
18	0xbe1c8867	-0.15286408
19	0xbc94d140	-0.018166184
20	0xbd52cf2b	-0.051467102
21	0xbeed101f	-0.46301362
22	0x3f25e977	0.64809364
23	0xbe3390af	-0.17535661
24	0xbe31a5d6	-0.17348418
25	0xbca34f18	-0.019935176
26	0x3e30d709	0.1726953
27	0x3e0bd629	0.13655914
28	0x3e9ffe74	0.3124882
29	0xbd881a11	-0.06645597
30	0x3eb62265	0.35573116
31	0x3e321ab3	0.17392997
32	0x3eac75c7	0.33683607
33	0xbe91289a	-0.2835129
34	0xbf29d1c4	-0.663357
35	0x3dc21eba	0.09478517
36	0xbe00eecf	-0.12591098
37	0x3e279f22	0.16369298
38	0xbe883e4f	-0.26610038
39	0xbd65caa7	-0.056101467
40	0xbdb01049	-0.08596856
41	0xbe05b215	-0.13056214
42	0xbf0ef293	-0.5583889
43	0x3e8c02e6	0.2734596
44	0xbd827313	-0.06369605
45	0x3e530aa1	0.20609523
46	0x3ee71591	0.4513364
47	0x3f004315	0.5010236
48	0xbde0a915	-0.1096975
49	0xbeccc665	-0.39995113
50	0xbdd3ac9e	-0.103356585
51	0xbe338199	-0.17529906
52	0x3e5ccbf2	0.21562174
53	0xbef19000	-0.47180176
54	0x3d510a5e	0.051035278
55	0xbe6d9099	-0.23199691
56	0xbee07bdb	-0.43844494
57	0xbc8ce271	-0.01719782
58	0x3e948b25	0.2901241
59	0xbe88fa76	-0.26753587
60	0x3e619314	0.22028762
61	0x3f024e84	0.50901055
62	0x3df5ce13	0.12002196
63	0x3e37e4e1	0.17958404

image_encoder.blocks.1.1.weight f4 [64, 64]
0	0xbf71b6dc	-0.94419646
1	0x3e29dd0a	0.16588226
2	0x3e18d01e	0.1492314
3	0x3c31d63d	0.010854301
4	0xbdab31ab	-0.08359083
5	0xbd96d4cd	-0.07364807
6	0x3e2141ea	0.157478
7	0xbe7d693c	-0.24747175
8	0x3e3a47f6	0.18191513
9	0x3dc4eb6d	0.096152164
10	0x3e19349d	0.14961477
11	0x3d3f8f5e	0.046767585
12	0xbd6a901f	-0.05726635
13	0xbdd72d7b	-0.105067216
14	0x3d0d4d2d	0.03449743
15	0x3e0807fd	0.13284297
16	0x3d609071	0.05482525
17	0xbe41f474	-0.18940908
18	0xbdb85c02	-0.09001924
19	0xbe138a81	-0.14408304
20	0x3d8b8ab1	0.06813563
21	0x3dfaafba	0.122405484
22	0x3dea4ca6	0.11440401
23	0x3c0fda0a	0.008780012
24	0xbe09d34f	-0.13459514
25	0xbdf6411b	-0.12024137
26	0x3e656be3	0.22404437
27	0xbdddb473	-0.108254336
28	0xbd9b6f8a	-0.07589634
29	0x3d99879a	0.07496567
30	0x3c51f7b1	0.012815402
31	0xbea160b4	-0.3151909
32	0xbecc621f	-0.3991861
33	0x3d8a6f0b	0.06759461
34	0x3da32cc8	0.07967526
35	0xbc8346c9	-0.016024964
36	0xbc0909f6	-0.008364191
37	0x3d5a48a8	0.053291947
38	0x3d6d2427	0.057895806
39	0xbcb6fbf6	-0.022336941
40	0xbd4034d6	-0.04692539
41	0x3d9cea67	0.07661896
42	0xbc06d3d7	-0.0082292175
43	0x3dccc836	0.09999125
44	0xbe5776d5	-0.21041425
45	0xbd84dc8c	-0.064873785
46	0x3d2e9470	0.04262203
47	0x3e050e95	0.12993844
48	0xbc16af70	-0.009197101
49	0x3ce35f79	0.027755486
50	0xbcc762a2	-0.024339024
51	0xbd1d4dec	-0.03840439
52	0xbca2cfe1	-0.019874515
53	0x3d99a3af	0.07501923
54	0x3d2f7199	0.042832945
55	0x3e93dd5a	0.28879815
56	0x3e03be8b	0.12865655
57	0xbe058122	-0.13037542
58	0x3e038a13	0.1284564
59	0x3e479ea1	0.19494106
60	0xbcdd09cf	-0.026982216
61	0x3e46ec64	0.19426113
62	0xbe2ad3c2	-0.16682342
63	0xbd27d531	-0.0409748
64	0x3db4b1d5	0.08822981
65	0x3e874cef	0.26425883
66	0xbea9f7f0	-0.33196974
67	0xbf0c1dc8	-0.5473294
68	0x3e1a14ce	0.15046999
69	0x3d8698eb	0.065721355
70	0xbebb78d2	-0.36615616
71	0x3e6b079a	0.22952119
72	0xbea172bd	-0.3153285
73	0x3e688262	0.22705987
74	0x3ebcfedc	0.36913192
75	0x3db643ab	0.088996254
76	0x3cf321f1	0.02967927
77	0x3e6835ee	0.22676823
78	0x3e2cf818	0.16891515
79	0xbeccf73b	-0.40032372
80	0x3eb05758	0.34441638
81	0x3dcf7b84	0.101309806
82	0x3f15f7be	0.5858115
83	0xbe71c503	-0.2361031
84	0x3dd23e57	0.10265797
85	0x3e7dfc30	0.24803233
86	0xbe381264	-0.17975765
87	0xbe714389	-0.23560919
88	0x3d12cfa7	0.035842564
89	0xbe6385f7	-0.22219072
90	0xbd5bf434	-0.053699687
91	0xbe664012	-0.22485378
92	0x3e53a86c	0.20669717
93	0xbe4d068f	-0.20022033
94	0xbe37abb1	-0.17936589
95	0xbd450257	-0.048097935
96	0xbdb4ac7e	-0.08821963
97	0x3e8ce78c	0.27520406
98	0x3e6f191f	0.23349427
99	0xbdf4c0cc	-0.119508356
100	0x3e8054ed	0.25064793
101	0xbd555755	-0.05208524
102	0x3e0e86b6	0.13918576
103	0x3ecf6d19	0.40512922
104	0x3c76afca	0.01505656
105	0xbe658abb	-0.22416203
106	0x3f0b389e	0.54383266
107	0xbe00d89a	-0.12582627
108	0x3e79236b	0.24329917
109	0x3d90061e	0.07032417
110	0xbe2a4c5d	-0.16630693
111	0xbe7dac95	-0.24772866
112	0x3e3cc241	0.18433477
113	0x3dc7388b	0.097275816
114	0x3de44e27	0.11147719
115	0xbe0420d1	-0.12903143
116	0xbe81c143	-0.2534276
117	0x3ee79115	0.45227876
118	0x3dff16bc	0.12455508
119	0x3e4af171	0.19818665
120	0x3ba2825a	0.004959387
121	0xbe6f9e2e	-0.23400185
122	0xbe41aa7a	-0.18912688
123	0xbe83429d	-0.2563676
124	0xbebe9b70	-0.37227964
125	0xbe866e69	-0.2625611
126	0xbed69ec6	-0.4191801
127	0xbeaaa7b5	-0.33331075
128	0x3d34bba2	0.044124253
129	0x3c61ee70	0.013789758
130	0xbeec1c89	-0.4611552
131	0x3d686de6	0.056745432
132	0xbc847af0	-0.016171902
133	0xbc3294c9	-0.010899731
134	0xbe8a4cd8	-0.27011752
135	0xbd9d3344	-0.07675794
136	0xbdac3863	-0.084091924
137	0x3db79c79	0.08965392
138	0x3de246db	0.11048671
139	0x3d9459e7	0.0724371
140	0x3e0c5515	0.13704331
141	0x3e989f57	0.29809067
142	0x3d29db30	0.0414688
143	0x3e7c44b1	0.24635579
144	0xbe084c2b	-0.13310306
145	0xbac6308f	-0.0015120673
146	0x3d19381e	0.037407033
147	0x3ee6e49c	0.4509629
148	0x3e3ef240	0.18647099
149	0xbe3ec84d	-0.18631096
150	0xbea4ab07	-0.32161734
151	0x3e2a2e66	0.16619262
152	0x3e6fd33c	0.23420423
153	0x3f08572e	0.53258026
154	0xbd3dfc41	-0.046383146
155	0x3e9a0780	0.30083847
156	0x3c97db0e	0.01853707
157	0x3e493fab	0.19653194
158	0xbe649dc3	-0.22325806
159	0xbddcca24	-0.10780743
160	0xbefe7176	-0.4969594
161	0x3da9722c	0.0827373
162	0x3e964c3a	0.2935503
163	0xbcc14129	-0.023590641
164	0xbd588188	-0.052857906
165	0x3ece4dbf	0.4029369
166	0xbe24cd3c	-0.16093916
167	0xbdcdf094	-0.10055652
168	0xbeaafc83	-0.33395776
169	0xbd006ba5	-0.031352658
170	0xbd6f434b	-0.058413785
171	0xbd0be298	-0.034151644
172	0xbe222e3c	-0.1583795
173	0x3dcf087b	0.101090394
174	0xbe461267	-0.19342957
175	0xbe9b8606	-0.3037569
176	0xbe5d9d6d	-0.21642084
177	0x3c291e54	0.010322172
178	0xbdb51ece	-0.08843766
179	0xbe289c36	-0.1646584
180	0xbe8721cc	-0.26392972
181	0x3e6c56e4	0.23080021
182	0xbc85e25d	-0.01634329
183	0x3e3ebfc6	0.18627843
184	0xbdc003c5	-0.09375719
185	0xbed62afd	-0.41829672
186	0x3be5cbcf	0.0070128213
187	0xbd3768af	-0.04477757
188	0x3d15d84d	0.036583234
189	0xbdb8de92	-0.09026827
190	0xbe0d6d0d	-0.13811131
191	0x3dd91167	0.10599022
192	0x3d07905a	0.03309665
193	0x3e6b8c04	0.2300263
194	0xbc99bda6	-0.01876719
195	0xbf7a8215	-0.9785474
196	0x3d8b3f0c	0.067991346
197	0x3e130d3a	0.14360514
198	0xbcdcfb85	-0.026975403
199	0x3d7a831b	0.06116019
200	0x3cc7ab8f	0.024373798
201	0xbc75f03a	-0.015010888
202	0x3e02ddcb	0.1277992
203	0xbd66e8b7	-0.056374278
204	0x3e564434	0.20924455
205	0xbe69ef1c	-0.22845119
206	0x3e28a2c5	0.16468342
207	0xbd2d4100	-0.042298317
208	0x3dec67bc	0.11543223
209	0x3cf8c5ea	0.03036781
210	0xbe9c1856	-0.30487317
211	0x3e8e37a7	0.27776834
212	0xbd894fee	-0.067046985
213	0x3d40178b	0.046897452
214	0x3e1d9b12	0.15391186
215	0x3e4d6370	0.20057464
216	0xbea30824	-0.31842148
217	0xbdcab586	-0.09897904
218	0x3dccbeae	0.09997307
219	0xbcfcb14e	-0.030846264
220	0xbde16954	-0.11006418
221	0x3e45f757	0.19332634
222	0x3d15622f	0.03647059
223	0x3c5f03c3	0.013611737
224	0x3c65d8e0	0.014028758
225	0xbcb4fe4d	-0.022093916
226	0x3d7c2049	0.061554227
227	0x3cea5b52	0.028607998
228	0x3e224e9e	0.15850303
229	0xbdbe6986	-0.09297471
230	0xbddbe2d2	-0.10736622
231	0xbc04096f	-0.00805889
232	0x3c8b8176	0.017029505
233	0x3b3138fe	0.0027042027
234	0xbcab40f3	-0.020904994
235	0x3e4438c6	0.19162282
236	0x3d272cb0	0.0408141
237	0xbd95aeaa	-0.07308705
238	0xbdfd2f71	-0.12362564
239	0x3e0ff977	0.14060007
240	0x3d967475	0.07346431
241	0x3dcf7a9b	0.10130807
242	0xbdde4bbe	-0.108542904
243	0xbdeb5d4a	-0.11492403
244	0xbe2e1e0c	-0.1700365
245	0x3e4575a7	0.19283162
246	0x3e88d43c	0.26724422
247	0x3cf99632	0.030467127
248	0x3d1be906	0.038064025
249	0x3c2bec28	0.010493316
250	0xbeb3a0b4	-0.35083544
251	0x3e16200d	0.14660664
252	0x3bbc2904	0.005742194
253	0x3df0876e	0.11744581
254	0xbe00d787	-0.12582217
255	0x3e61cd0d	0.22050877

image_encoder.blocks.1.1.bias f4 [64]
0	0xbe3148a0	-0.1731286
1	0xbee980de	-0.4560613
2	0xbe6664e2	-0.22499421
3	0x3d408e8e	0.04701095
4	0x3e1bd012	0.15216091
5	0xbe2de31d	-0.16981168
6	0xbed105c3	-0.40824708
7	0x3d8bafe3	0.06820657
8	0xbeb1093e	-0.34577364
9	0xbf0f4353	-0.55962104
10	0xbe7eb018	-0.24871862
11	0xbd470472	-0.048588224
12	0xbede9bcf	-0.43478248
13	0xbe318ff4	-0.1734007
14	0xbf417816	-0.7557386
15	0xbdf3334d	-0.11875019
16	0xbe6508d2	-0.22366646
17	0xbd1053fd	-0.035236347
18	0xbe5e44bf	-0.21705912
19	0xbdc4db60	-0.09612155
20	0xbd72feae	-0.059324913
21	0xbe973ce1	-0.29538634
22	0xbebde6ef	-0.3709025
23	0xbd08ac35	-0.033367354
24	0xbd11d07e	-0.035599224
25	0xbc618665	-0.013764952
26	0xbec3838e	-0.38186306
27	0x3dabf88c	0.08397016
28	0x3de1817d	0.11011026
29	0xbbbb11c8	-0.005708907
30	0xbca92cb1	-0.020651193
31	0xbe7b7858	-0.24557626
32	0xbe8c6a4e	-0.27424854
33	0xbe529173	-0.20563297
34	0xbeecec44	-0.46274006
35	0xbdc5f69f	-0.0966618
36	0xbe9a2657	-0.30107376
37	0x3e0a5f5c	0.13512939
38	0xbdf8eea4	-0.12154892
39	0xbdf53f15	-0.119749226
40	0xbe60c8d2	-0.21951607
41	0xbe761cac	-0.24034375
42	0xbe852e09	-0.26011685
43	0xbecc484d	-0.3989891
44	0x3d839ef6	0.06426804
45	0x3d22f029	0.039779816
46	0xbe9f71b9	-0.3114145
47	0xbecc41b8	-0.3989389
48	0xbd0c1a67	-0.034204867
49	0xbe27f345	-0.16401394
50	0xbe1c1d82	-0.15245631
51	0xbd94b23c	-0.07260558
52	0x3e02f7a6	0.12789783
53	0xbedadf44	-0.42748463
54	0xbcdfd833	-0.027324772
55	0x3d536eba	0.05161927
56	0xbea6c607	-0.32572958
57	0xbd1df45d	-0.03856312
58	0x3c37cdbd	0.011218485
59	0xbe5dc4e1	-0.21657135
60	0xbdb6b111	-0.089204915
61	0xbee6b12d	-0.4505705
62	0xbe0f52f3	-0.13996486
63	0x3dec1bd1	0.11528743

image_encoder.blocks.2.0.weight f4 [64]
0	0x3f65174e	0.89488685
1	0x3f4f8348	0.81059694
2	0x3f58e86f	0.84729666
3	0x3f66e1ec	0.9018848
4	0x3f61db32	0.8822509
5	0x3f3faeac	0.74875903
6	0x3f44f25f	0.7693233
7	0x3f8a3e14	1.0800195
8	0x3f4ccc42	0.7999917
9	0x3f15c7da	0.58508074
10	0x3f86a8f0	1.0520306
11	0x3f6c3b62	0.9227811
12	0x3f283f88	0.6572194
13	0x3f5e8200	0.86917114
14	0x3f22384b	0.63367146
15	0x3f6b7927	0.9198174
16	0x3f70a07c	0.9399488
17	0x3f6893ad	0.90850335
18	0x3f451eeb	0.770003
19	0x3f56a376	0.8384317
20	0x3f6f2140	0.9341011
21	0x3f7a2740	0.9771614
22	0x3f6ee216	0.9331373
23	0x3f5063d1	0.8140231
24	0x3f7621a0	0.9614506
25	0x3f8352e2	1.0259669
26	0x3f5c95e5	0.8616622
27	0x3f65f942	0.8983346
28	0x3f7a42ed	0.9775837
29	0x3f852c41	1.040413
30	0x3f3b4255	0.7314809
31	0x3f4e2ee7	0.8054032
32	0x3f4a9961	0.7914029
33	0x3f6a8abf	0.9161796
34	0x3f156270	0.5835333
35	0x3f5d541d	0.8645647
36	0x3f54f492	0.83185685
37	0x3f645f58	0.89207983
38	0x3f659cab	0.8969218
39	0x3f8c45b2	1.0958769
40	0x3f5763e2	0.84136784
41	0x3f23e11e	0.64015377
42	0x3f82b309	1.0210887
43	0x3f34c640	0.70615005
44	0x3f7133c3	0.9421961
45	0x3f616bfb	0.8805539
46	0x3f2f9f5d	0.68602544
47	0x3f158d8d	0.58419114
48	0x3f90ab15	1.130221
49	0x3f6f4d4b	0.93477315
50	0x3f7c8ed3	0.9865543
51	0x3f50428c	0.8135154
52	0x3f6b1592	0.9182979
53	0x3f29afc8	0.66283846
54	0x3f7f3e43	0.9970438
55	0x3f86b798	1.0524778
56	0x3f81d18a	1.0142071
57	0x3f667369	0.9001985
58	0x3f8b6fed	1.0893532
59	0x3f4bb848	0.79578066
60	0x3f4f992d	0.810931
61	0x3f4128ed	0.7545307
62	0x3f5167b6	0.81798875
63	0x3f801382	1.0005953

image_encoder.blocks.2.0.bias f4 [64]
0	0xbea34601	-0.31889346
1	0x3eaaa798	0.3333099
2	0x3e848bf5	0.2588803
3	0xbde7939f	-0.11307453
4	0x3d9e4750	0.077284455
5	0xbed70317	-0.41994545
6	0x3f3945ea	0.72372305
7	0xbe6001d5	-0.21875699
8	0x3f0d71fd	0.5525206
9	0xbf420b92	-0.75798905
10	0xbe8eb242	-0.27870375
11	0xbdff480f	-0.12464916
12	0xbe56d738	-0.20980537
13	0xbe2bdc35	-0.16783221
14	0xbeccc5cc	-0.39994657
15	0xbc721f9d	-0.014778045
16	0xbe5c99af	-0.21543
17	0x3e2c97ad	0.16854735
18	0xbe1c8867	-0.15286408
19	0xbc94d140	-0.018166184
20	0xbd52cf2b	-0.051467102
21	0xbeed101f	-0.46301362
22	0x3f25e977	0.64809364
23	0xbe3390af	-0.17535661
24	0xbe31a5d6	-0.17348418
25	0xbca34f18	-0.019935176
26	0x3e30d709	0.1726953
27	0x3e0bd629	0.13655914
28	0x3e9ffe74	0.3124882
29	0xbd881a11	-0.06645597
30	0x3eb62265	0.35573116
31	0x3e321ab3	0.17392997
32	0x3eac75c7	0.33683607
33	0xbe91289a	-0.2835129
34	0xbf29d1c4	-0.663357
35	0x3dc21eba	0.09478517
36	0xbe00eecf	-0.12591098
37	0x3e279f22	0.16369298
38	0xbe883e4f	-0.26610038
39	0xbd65caa7	-0.056101467
40	0xbdb01049	-0.08596856
41	0xbe05b215	-0.13056214
42	0xbf0ef293	-0.5583889
43	0x3e8c02e6	0.2734596
44	0xbd827313	-0.06369605
45	0x3e530aa1	0.20609523
46	0x3ee71591	0.4513364
47	0x3f004315	0.5010236
48	0xbde0a915	-0.1096975
49	0xbeccc665	-0.39995113
50	0xbdd3ac9e	-0.103356585
51	0xbe338199	-0.17529906
52	0x3e5ccbf2	0.21562174
53	0xbef19000	-0.47180176
54	0x3d510a5e	0.051035278
55	0xbe6d9099	-0.23199691
56	0xbee07bdb	-0.43844494
57	0xbc8ce271	-0.01719782
58	0x3e948b25	0.2901241
59	0xbe88fa76	-0.26753587
60	0x3e619314	0.22028762
61	0x3f024e84	0.50901055
62	0x3df5ce13	0.12002196
63	0x3e37e4e1	0.17958404

image_encoder.blocks.2.1.weight f4 [64, 64]
0	0xbf71b6dc	-0.94419646
1	0x3e29dd0a	0.16588226
2	0x3e18d01e	0.1492314
3	0x3c31d63d	0.010854301
4	0xbdab31ab	-0.08359083
5	0xbd96d4cd	-0.07364807
6	0x3e2141ea	0.157478
7	0xbe7d693c	-0.24747175
8	0x3e3a47f6	0.18191513
9	0x3dc4eb6d	0.096152164
10	0x3e19349d	0.14961477
11	0x3d3f8f5e	0.046767585
12	0xbd6a901f	-0.05726635
13	0xbdd72d7b	-0.105067216
14	0x3d0d4d2d	0.03449743
15	0x3e0807fd	0.13284297
16	0x3d609071	0.05482525
17	0xbe41f474	-0.18940908
18	0xbdb85c02	-0.09001924
19	0xbe138a81	-0.14408304
20	0x3d8b8ab1	0.06813563
21	0x3dfaafba	0.122405484
22	0x3dea4ca6	0.11440401
23	0x3c0fda0a	0.008780012
24	0xbe09d34f	-0.13459514
25	0xbdf6411b	-0.12024137
26	0x3e656be3	0.22404437
27	0xbdddb473	-0.108254336
28	0xbd9b6f8a	-0.07589634
29	0x3d99879a	0.07496567
30	0x3c51f7b1	0.012815402
31	0xbea160b4	-0.3151909
32	0xbecc621f	-0.3991861
33	0x3d8a6f0b	0.06759461
34	0x3da32cc8	0.07967526
35	0xbc8346c9	-0.016024964
36	0xbc0909f6	-0.008364191
37	0x3d5a48a8	0.053291947
38	0x3d6d2427	0.057895806
39	0xbcb6fbf6	-0.022336941
40	0xbd4034d6	-0.04692539
41	0x3d9cea67	0.07661896
42	0xbc06d3d7	-0.0082292175
43	0x3dccc836	0.09999125
44	0xbe5776d5	-0.21041425
45	0xbd84dc8c	-0.064873785
46	0x3d2e9470	0.04262203
47	0x3e050e95	0.12993844
48	0xbc16af70	-0.009197101
49	0x3ce35f79	0.027755486
50	0xbcc762a2	-0.024339024
51	0xbd1d4dec	-0.03840439
52	0xbca2cfe1	-0.019874515
53	0x3d99a3af	0.07501923
54	0x3d2f7199	0.042832945
55	0x3e93dd5a	0.28879815
56	0x3e03be8b	0.12865655
57	0xbe058122	-0.13037542
58	0x3e038a13	0.1284564
59	0x3e479ea1	0.19494106
60	0xbcdd09cf	-0.026982216
61	0x3e46ec64	0.19426113
62	0xbe2ad3c2	-0.16682342
63	0xbd27d531	-0.0409748
64	0x3db4b1d5	0.08822981
65	0x3e874cef	0.26425883
66	0xbea9f7f0	-0.33196974
67	0xbf0c1dc8	-0.5473294
68	0x3e1a14ce	0.15046999
69	0x3d8698eb	0.065721355
70	0xbebb78d2	-0.36615616
71	0x3e6b079a	0.22952119
72	0xbea172bd	-0.3153285
73	0x3e688262	0.22705987
74	0x3ebcfedc	0.36913192
75	0x3db643ab	0.088996254
76	0x3cf321f1	0.02967927
77	0x3e6835ee	0.22676823
78	0x3e2cf818	0.16891515
79	0xbeccf73b	-0.40032372
80	0x3eb05758	0.34441638
81	0x3dcf7b84	0.101309806
82	0x3f15f7be	0.5858115
83	0xbe71c503	-0.2361031
84	0x3dd23e57	0.10265797
85	0x3e7dfc30	0.24803233
86	0xbe381264	-0.17975765
87	0xbe714389	-0.23560919
88	0x3d12cfa7	0.035842564
89	0xbe6385f7	-0.22219072
90	0xbd5bf434	-0.053699687
91	0xbe664012	-0.22485378
92	0x3e53a86c	0.20669717
93	0xbe4d068f	-0.20022033
94	0xbe37abb1	-0.17936589
95	0xbd450257	-0.048097935
96	0xbdb4ac7e	-0.08821963
97	0x3e8ce78c	0.27520406
98	0x3e6f191f	0.23349427
99	0xbdf4c0cc	-0.119508356
100	0x3e8054ed	0.25064793
101	0xbd555755	-0.05208524
102	0x3e0e86b6	0.13918576
103	0x3ecf6d19	0.40512922
104	0x3c76afca	0.01505656
105	0xbe658abb	-0.22416203
106	0x3f0b389e	0.54383266
107	0xbe00d89a	-0.12582627
108	0x3e79236b	0.24329917
109	0x3d90061e	0.07032417
110	0xbe2a4c5d	-0.16630693
111	0xbe7dac95	-0.24772866
112	0x3e3cc241	0.18433477
113	0x3dc7388b	0.097275816
114	0x3de44e27	0.11147719
115	0xbe0420d1	-0.12903143
116	0xbe81c143	-0.2534276
117	0x3ee79115	0.45227876
118	0x3dff16bc	0.12455508
119	0x3e4af171	0.19818665
120	0x3ba2825a	0.004959387
121	0xbe6f9e2e	-0.23400185
122	0xbe41aa7a	-0.18912688
123	0xbe83429d	-0.2563676
124	0xbebe9b70	-0.37227964
125	0xbe866e69	-0.2625611
126	0xbed69ec6	-0.4191801
127	0xbeaaa7b5	-0.33331075
128	0x3d34bba2	0.044124253
129	0x3c61ee70	0.013789758
130	0xbeec1c89	-0.4611552
131	0x3d686de6	0.056745432
132	0xbc847af0	-0.016171902
133	0xbc3294c9	-0.010899731
134	0xbe8a4cd8	-0.27011752
135	0xbd9d3344	-0.07675794
136	0xbdac3863	-0.084091924
137	0x3db79c79	0.08965392
138	0x3de246db	0.11048671
139	0x3d9459e7	0.0724371
140	0x3e0c5515	0.13704331
141	0x3e989f57	0.29809067
142	0x3d29db30	0.0414688
143	0x3e7c44b1	0.24635579
144	0xbe084c2b	-0.13310306
145	0xbac6308f	-0.0015120673
146	0x3d19381e	0.037407033
147	0x3ee6e49c	0.4509629
148	0x3e3ef240	0.18647099
149	0xbe3ec84d	-0.18631096
150	0xbea4ab07	-0.32161734
151	0x3e2a2e66	0.16619262
152	0x3e6fd33c	0.23420423
153	0x3f08572e	0.53258026
154	0xbd3dfc41	-0.046383146
155	0x3e9a0780	0.30083847
156	0x3c97db0e	0.01853707
157	0x3e493fab	0.19653194
158	0xbe649dc3	-0.22325806
159	0xbddcca24	-0.10780743
160	0xbefe7176	-0.4969594
161	0x3da9722c	0.0827373
162	0x3e964c3a	0.2935503
163	0xbcc14129	-0.023590641
164	0xbd588188	-0.052857906
165	0x3ece4dbf	0.4029369
166	0xbe24cd3c	-0.16093916
167	0xbdcdf094	-0.10055652
168	0xbeaafc83	-0.33395776
169	0xbd006ba5	-0.031352658
170	0xbd6f434b	-0.058413785
171	0xbd0be298	-0.034151644
172	0xbe222e3c	-0.1583795
173	0x3dcf087b	0.101090394
174	0xbe461267	-0.19342957
175	0xbe9b8606	-0.3037569
176	0xbe5d9d6d	-0.21642084
177	0x3c291e54	0.010322172
178	0xbdb51ece	-0.08843766
179	0xbe289c36	-0.1646584
180	0xbe8721cc	-0.26392972
181	0x3e6c56e4	0.23080021
182	0xbc85e25d	-0.01634329
183	0x3e3ebfc6	0.18627843
184	0xbdc003c5	-0.09375719
185	0xbed62afd	-0.41829672
186	0x3be5cbcf	0.0070128213
187	0xbd3768af	-0.04477757
188	0x3d15d84d	0.036583234
189	0xbdb8de92	-0.09026827
190	0xbe0d6d0d	-0.13811131
191	0x3dd91167	0.10599022
192	0x3d07905a	0.03309665
193	0x3e6b8c04	0.2300263
194	0xbc99bda6	-0.01876719
195	0xbf7a8215	-0.9785474
196	0x3d8b3f0c	0.067991346
197	0x3e130d3a	0.14360514
198	0xbcdcfb85	-0.026975403
199	0x3d7a831b	0.06116019
200	0x3cc7ab8f	0.024373798
201	0xbc75f03a	-0.015010888
202	0x3e02ddcb	0.1277992
203	0xbd66e8b7	-0.056374278
204	0x3e564434	0.20924455
205	0xbe69ef1c	-0.22845119
206	0x3e28a2c5	0.16468342
207	0xbd2d4100	-0.042298317
208	0x3dec67bc	0.11543223
209	0x3cf8c5ea	0.03036781
210	0xbe9c1856	-0.30487317
211	0x3e8e37a7	0.27776834
212	0xbd894fee	-0.067046985
213	0x3d40178b	0.046897452
214	0x3e1d9b12	0.15391186
215	0x3e4d6370	0.20057464
216	0xbea30824	-0.31842148
217	0xbdcab586	-0.09897904
218	0x3dccbeae	0.09997307
219	0xbcfcb14e	-0.030846264
220	0xbde16954	-0.11006418
221	0x3e45f757	0.19332634
222	0x3d15622f	0.03647059
223	0x3c5f03c3	0.013611737
224	0x3c65d8e0	0.014028758
225	0xbcb4fe4d	-0.022093916
226	0x3d7c2049	0.061554227
227	0x3cea5b52	0.028607998
228	0x3e224e9e	0.15850303
229	0xbdbe6986	-0.09297471
230	0xbddbe2d2	-0.10736622
231	0xbc04096f	-0.00805889
232	0x3c8b8176	0.017029505
233	0x3b3138fe	0.0027042027
234	0xbcab40f3	-0.020904994
235	0x3e4438c6	0.19162282
236	0x3d272cb0	0.0408141
237	0xbd95aeaa	-0.07308705
238	0xbdfd2f71	-0.12362564
239	0x3e0ff977	0.14060007
240	0x3d967475	0.07346431
241	0x3dcf7a9b	0.10130807
242	0xbdde4bbe	-0.108542904
243	0xbdeb5d4a	-0.11492403
244	0xbe2e1e0c	-0.1700365
245	0x3e4575a7	0.19283162
246	0x3e88d43c	0.26724422
247	0x3cf99632	0.030467127
248	0x3d1be906	0.038064025
249	0x3c2bec28	0.010493316
250	0xbeb3a0b4	-0.35083544
251	0x3e16200d	0.14660664
252	0x3bbc2904	0.005742194
253	0x3df0876e	0.11744581
254	0xbe00d787	-0.12582217
255	0x3e61cd0d	0.22050877

image_encoder.blocks.2.1.bias f4 [64]
0	0xbe3148a0	-0.1731286
1	0xbee980de	-0.4560613
2	0xbe6664e2	-0.22499421
3	0x3d408e8e	0.04701095
4	0x3e1bd012	0.15216091
5	0xbe2de31d	-0.16981168
6	0xbed105c3	-0.40824708
7	0x3d8bafe3	0.06820657
8	0xbeb1093e	-0.34577364
9	0xbf0f4353	-0.55962104
10	0xbe7eb018	-0.24871862
11	0xbd470472	-0.048588224
12	0xbede9bcf	-0.43478248
13	0xbe318ff4	-0.1734007
14	0xbf417816	-0.7557386
15	0xbdf3334d	-0.11875019
16	0xbe6508d2	-0.22366646
17	0xbd1053fd	-0.035236347
18	0xbe5e44bf	-0.21705912
19	0xbdc4db60	-0.09612155
20	0xbd72feae	-0.059324913
21	0xbe973ce1	-0.29538634
22	0xbebde6ef	-0.3709025
23	0xbd08ac35	-0.033367354
24	0xbd11d07e	-0.035599224
25	0xbc618665	-0.013764952
26	0xbec3838e	-0.38186306
27	0x3dabf88c	0.08397016
28	0x3de1817d	0.11011026
29	0xbbbb11c8	-0.005708907
30	0xbca92cb1	-0.020651193
31	0xbe7b7858	-0.24557626
32	0xbe8c6a4e	-0.27424854
33	0xbe529173	-0.20563297
34	0xbeecec44	-0.46274006
35	0xbdc5f69f	-0.0966618
36	0xbe9a2657	-0.30107376
37	0x3e0a5f5c	0.13512939
38	0xbdf8eea4	-0.12154892
39	0xbdf53f15	-0.119749226
40	0xbe60c8d2	-0.21951607
41	0xbe761cac	-0.24034375
42	0xbe852e09	-0.26011685
43	0xbecc484d	-0.3989891
44	0x3d839ef6	0.06426804
45	0x3d22f029	0.039779816
46	0xbe9f71b9	-0.3114145
47	0xbecc41b8	-0.3989389
48	0xbd0c1a67	-0.034204867
49	0xbe27f345	-0.16401394
50	0xbe1c1d82	-0.15245631
51	0xbd94b23c	-0.07260558
52	0x3e02f7a6	0.12789783
53	0xbedadf44	-0.42748463
54	0xbcdfd833	-0.027324772
55	0x3d536eba	0.05161927
56	0xbea6c607	-0.32572958
57	0xbd1df45d	-0.03856312
58	0x3c37cdbd	0.011218485
59	0xbe5dc4e1	-0.21657135
60	0xbdb6b111	-0.089204915
61	0xbee6b12d	-0.4505705
62	0xbe0f52f3	-0.13996486
63	0x3dec1bd1	0.11528743

image_encoder.blocks.3.0.weight f4 [64]
0	0x3f65174e	0.89488685
1	0x3f4f8348	0.81059694
2	0x3f58e86f	0.84729666
3	0x3f66e1ec	0.9018848
4	0x3f61db32	0.8822509
5	0x3f3faeac	0.74875903
6	0x3f44f25f	0.7693233
7	0x3f8a3e14	1.0800195
8	0x3f4ccc42	0.7999917
9	0x3f15c7da	0.58508074
10	0x3f86a8f0	1.0520306
11	0x3f6c3b62	0.9227811
12	0x3f283f88	0.6572194
13	0x3f5e8200	0.86917114
14	0x3f22384b	0.63367146
15	0x3f6b7927	0.9198174
16	0x3f70a07c	0.9399488
17	0x3f6893ad	0.90850335
18	0x3f451eeb	0.770003
19	0x3f56a376	0.8384317
20	0x3f6f2140	0.9341011
21	0x3f7a2740	0.9771614
22	0x3f6ee216	0.9331373
23	0x3f5063d1	0.8140231
24	0x3f7621a0	0.9614506
25	0x3f8352e2	1.0259669
26	0x3f5c95e5	0.8616622
27	0x3f65f942	0.8983346
28	0x3f7a42ed	0.9775837
29	0x3f852c41	1.040413
30	0x3f3b4255	0.7314809
31	0x3f4e2ee7	0.8054032
32	0x3f4a9961	0.7914029
33	0x3f6a8abf	0.9161796
34	0x3f156270	0.5835333
35	0x3f5d541d	0.8645647
36	0x3f54f492	0.83185685
37	0x3f645f58	0.89207983
38	0x3f659cab	0.8969218
39	0x3f8c45b2	1.0958769
40	0x3f5763e2	0.84136784
41	0x3f23e11e	0.64015377
42	0x3f82b309	1.0210887
43	0x3f34c640	0.70615005
44	0x3f7133c3	0.9421961
45	0x3f616bfb	0.8805539
46	0x3f2f9f5d	0.68602544
47	0x3f158d8d	0.58419114
48	0x3f90ab15	1.130221
49	0x3f6f4d4b	0.93477315
50	0x3f7c8ed3	0.9865543
51	0x3f50428c	0.8135154
52	0x3f6b1592	0.9182979
53	0x3f29afc8	0.66283846
54	0x3f7f3e43	0.9970438
55	0x3f86b798	1.0524778
56	0x3f81d18a	1.0142071
57	0x3f667369	0.9001985
58	0x3f8b6fed	1.0893532
59	0x3f4bb848	0.79578066
60	0x3f4f992d	0.810931
61	0x3f4128ed	0.7545307
62	0x3f5167b6	0.81798875
63	0x3f801382	1.0005953

image_encoder.blocks.3.0.bias f4 [64]
0	0xbea34601	-0.31889346
1	0x3eaaa798	0.3333099
2	0x3e848bf5	0.2588803
3	0xbde7939f	-0.11307453
4	0x3d9e4750	0.077284455
5	0xbed70317	-0.41994545
6	0x3f3945ea	0.72372305
7	0xbe6001d5	-0.21875699
8	0x3f0d71fd	0.5525206
9	0xbf420b92	-0.75798905
10	0xbe8eb242	-0.27870375
11	0xbdff480f	-0.12464916
12	0xbe56d738	-0.20980537
13	0xbe2bdc35	-0.16783221
14	0xbeccc5cc	-0.39994657
15	0xbc721f9d	-0.014778045
16	0xbe5c99af	-0.21543
17	0x3e2c97ad	0.16854735
18	0xbe1c8867	-0.15286408
19	0xbc94d140	-0.018166184
20	0xbd52cf2b	-0.051467102
21	0xbeed101f	-0.46301362
22	0x3f25e977	0.64809364
23	0xbe3390af	-0.17535661
24	0xbe31a5d6	-0.17348418
25	0xbca34f18	-0.019935176
26	0x3e30d709	0.1726953
27	0x3e0bd629	0.13655914
28	0x3e9ffe74	0.3124882
29	0xbd881a11	-0.06645597
30	0x3eb62265	0.35573116
31	0x3e321ab3	0.17392997
32	0x3eac75c7	0.33683607
33	0xbe91289a	-0.2835129
34	0xbf29d1c4	-0.663357
35	0x3dc21eba	0.09478517
36	0xbe00eecf	-0.12591098
37	0x3e279f22	0.16369298
38	0xbe883e4f	-0.26610038
39	0xbd65caa7	-0.056101467
40	0xbdb01049	-0.08596856
41	0xbe05b215	-0.13056214
42	0xbf0ef293	-0.5583889
43	0x3e8c02e6	0.2734596
44	0xbd827313	-0.06369605
45	0x3e530aa1	0.20609523
46	0x3ee71591	0.4513364
47	0x3f004315	0.5010236
48	0xbde0a915	-0.1096975
49	0xbeccc665	-0.39995113
50	0xbdd3ac9e	-0.103356585
51	0xbe338199	-0.17529906
52	0x3e5ccbf2	0.21562174
53	0xbef19000	-0.47180176
54	0x3d510a5e	0.051035278
55	0xbe6d9099	-0.23199691
56	0xbee07bdb	-0.43844494
57	0xbc8ce271	-0.01719782
58	0x3e948b25	0.2901241
59	0xbe88fa76	-0.26753587
60	0x3e619314	0.22028762
61	0x3f024e84	0.50901055
62	0x3df5ce13	0.12002196
63	0x3e37e4e1	0.17958404
